model_state_dict_pipeline1.pt (torch, 453506 bytes, 12 tensors)

conv1.weight f4 [6, 1, 5, 5]
000000 41 37 76 bd 0d 86 d1 3c 02 53 f2 3c bc 94 b1 3e
       -0.060111288 0.025576616 0.029580597 0.34683788
000010 fe 5d a0 bd 66 04 59 3d c8 0a 97 3e 4d 94 9a 3e
       -0.078304276 0.05298271 0.29500413 0.3019127
000020 a6 fc d6 3e 5c 27 c3 3e d9 d5 09 bd 76 0c e8 3d
       0.4198963 0.38115966 -0.033651207 0.11330502
000030 4c 2b 9f 3e 2d 0d ff 3d 9c 99 51 3e ff ae 46 bc
       0.3108772 0.12453685 0.20468754 -0.012126683
000040 ed 79 0a 3e 07 51 26 be 92 62 46 be c1 1b d6 3b
       0.13523073 -0.16241847 -0.19373539 0.0065340702
000050 45 f7 53 be 10 f9 19 be a4 90 5e bd 1d 93 31 be
       -0.20699795 -0.15036416 -0.05433716 -0.17341276
000060 95 df 1f be 7a fb 87 be a3 48 db 3d 9e 4d 4d 3e
       -0.15612634 -0.2655905 0.10707214 0.2004914
000070 49 8c 83 3e 41 76 3c 3e 01 ae 3b be 5a ee 48 3d
       0.25692967 0.18404485 -0.18328096 0.049055435
000080 82 15 eb bd bc 4f 7a 3e 9b ca a2 3e 78 60 30 be
       -0.11478712 0.24444479 0.317952 -0.172243
000090 98 c6 95 bd bf d3 1b be 21 3e ce 3c 59 1e bc 3d
       -0.073132694 -0.15217493 0.02517611 0.09185476
0000a0 99 45 57 be 50 77 75 be 55 08 3b 3d f9 e2 68 3e
       -0.21022643 -0.23971295 0.045662243 0.22742833
0000b0 bc fd e7 3d ba 80 81 be e8 f2 06 3d 99 03 e1 3d
       0.11327693 -0.25293523 0.032946497 0.10987014
0000c0 6b 76 94 3d ec c5 49 3d c8 da a1 bd a9 8f aa 3e
       0.07249149 0.04926102 -0.07903057 0.3331273
0000d0 d7 9e 4b 3e cc de 50 3e 1e c6 3f 3e cc 26 ca 3d
       0.19884811 0.2039749 0.1872792 0.09870681
0000e0 56 65 5b 3e 7e 18 74 3e 83 ea 51 bd 77 f8 26 3e
       0.21425375 0.23837468 -0.05124904 0.1630572
0000f0 ce 3a 1c be 26 b7 74 bd fd 46 2e be 6b 40 5c 3d
       -0.15256807 -0.059744976 -0.17019267 0.05377237
000100 a6 de ad 3d 8e 38 0e be e7 0f 62 be 8c 67 7c 3c
       0.084897324 -0.13888761 -0.22076379 0.015405547
000110 79 a4 7c bb c0 5d bf bd d6 b4 6b bd da 2b 07 be
       -0.0038550182 -0.09344053 -0.057545505 -0.13200322
000120 16 a5 52 be 06 e1 0b be 09 3a aa bd f3 74 30 be
       -0.20570788 -0.13660058 -0.083118506 -0.17232113
000130 76 ae 76 be 48 44 37 be 07 67 36 be f2 ce da 3d
       -0.24089989 -0.17897141 -0.1781274 0.10684003
000140 88 51 81 3d 7b 6e 58 3e a7 80 cc 3d b2 7c 00 3f
       0.06314379 0.21135895 0.09985476 0.5019027
000150 48 e3 e1 3e fe a0 90 bd a7 f6 c4 bc df 16 d7 3e
       0.44118714 -0.07061957 -0.024043394 0.42009637
000160 19 96 89 3e 88 35 10 3f 93 eb ee 3d 4f f3 d0 bd
       0.26872328 0.5633168 0.11666026 -0.102026574
000170 fe 61 c8 3e e8 98 ef 3e d9 38 47 3e ec 5f da bc
       0.39137262 0.46796346 0.1945528 -0.026657067
000180 3e 60 8e bd 0b b5 b1 3c bb 66 09 bd 25 0f 3b 3c
       -0.069519505 0.021692773 -0.033545237 0.011417185
000190 66 a8 0f be 47 07 21 3c ed 7e d3 bd 47 41 6f bd
       -0.14029083 0.009828395 -0.103269435 -0.058411863
0001a0 01 62 36 3d 9d 4a 82 3e 24 ad d8 bd d3 ce 50 bd
       0.044527058 0.2544755 -0.10579899 -0.050978493
0001b0 51 d2 3a 3e c7 5d ef 3d 6e 70 84 3e e2 ee a0 3e
       0.18244292 0.116878085 0.25867027 0.31432253
0001c0 7b 23 ae 3d 4d 7f c3 3d 01 ee 0d 3d dc 89 a9 3e
       0.08502861 0.09545765 0.034650806 0.3311299
0001d0 04 a5 64 3e 4d 1e d5 3e 8f 18 83 3e 23 41 a9 3d
       0.22328573 0.4162468 0.25604674 0.08264377
0001e0 e4 f8 9c 3e 26 49 2a 3e 66 92 94 3e 87 1f 9a 3e
       0.30658638 0.16629466 0.29017943 0.30102178
0001f0 d3 b6 12 bd 31 1f 9d be fb e7 bb 3c 38 a6 40 be
       -0.035818886 -0.3068786 0.022937765 -0.18813407
000200 ef f8 aa 3c de be 25 be df 24 15 bc 23 77 70 be
       0.020870654 -0.16186091 -0.009103029 -0.23482947
000210 aa f6 cc bd de a6 1b be ec da 31 bd d7 2d 3b be
       -0.10007985 -0.15200374 -0.04342167 -0.18279205
000220 54 05 22 be ff 11 09 be fe f7 10 be 43 9c 47 be
       -0.15822345 -0.13385771 -0.14157102 -0.19493203
000230 f1 22 91 be 60 83 96 bd 6d 37 1c be 5d 5a 2e be
       -0.2834697 -0.073492765 -0.15255518 -0.17026658
000240 9d 9a 79 be 98 a3 e9 bd 0b 72 5c be 3b ae 5c be
       -0.24375387 -0.11408156 -0.21527879 -0.21550839
000250 3e 89 c4 bd 86 48 ad bd
       -0.09596489 -0.084610984

conv1.bias f4 [6]
000000 d3 4c 8d bd f7 98 34 3e a9 b9 01 3e a8 f0 16 3d
       -0.06899419 0.17636476 0.1266848 0.0368506
000010 ce 4b c7 3c 0b 54 d1 bd
       0.024328139 -0.10221108

conv2.weight f4 [16, 6, 5, 5]
000000 17 1a e7 bd fd 7e 36 bd f2 85 1a bd 49 52 f9 bc
       -0.11284273 -0.0445547 -0.037725396 -0.030434744
000010 0b 61 a2 bd 34 cb bc bd 29 e4 39 be 01 9c 1b bd
       -0.07928666 -0.092184454 -0.18153442 -0.037990574
000020 4c 91 8a bc fa 37 3a bd 1f 34 be bd 0f b5 16 bd
       -0.016914986 -0.04546354 -0.09287285 -0.036793765
000030 5e 70 fc bd a9 55 dd bd c5 07 29 be ca e7 ff 3d
       -0.1232612 -0.10807354 -0.1650687 0.12495382
000040 0d cd 0e 3e 6f 93 bf 3d 3e 71 16 bd 3f 67 41 bc
       0.13945408 0.093542926 -0.03672909 -0.011804401
000050 cc 08 fe 3d 02 49 05 3e 2c 0e bb 3d b5 e4 bb bc
       0.124040216 0.13016132 0.091335624 -0.022936204
000060 5a 8a eb 3c 90 03 8d bd 6c b4 fa bd cc 07 e3 bc
       0.028752495 -0.06885445 -0.12241444 -0.027713679
000070 17 0e e3 3c 58 1a 0d 3d bf 79 a5 bc c3 6d 9a bd
       0.02771668 0.03444895 -0.020199655 -0.07540467
000080 c0 5a ba bd 85 b8 8f 3c d5 ff d6 3c be c7 50 3d
       -0.090993404 0.01754404 0.026245037 0.05097174
000090 b1 19 8a bd 54 67 1c bc 85 2b 23 bc ec 1c 15 bc
       -0.067431815 -0.00954612 -0.009959106 -0.009101134
0000a0 dc c4 01 3b 51 2d 8a 3d f7 75 a3 3d bb 4d f0 bc
       0.0019801175 0.06746925 0.079814844 -0.02933394
0000b0 68 af 89 bc 59 b0 8d 3d 4a 91 b8 3d 6a 97 b0 3c
       -0.016807273 0.06918401 0.09012087 0.021556575
0000c0 5e 41 99 3d fa 0a 9b 3d a2 36 d1 bd fc 64 e9 bc
       0.07483171 0.07570453 -0.102154985 -0.028490536
0000d0 3b 18 4a 3d 73 09 ee 3c f8 23 7b 3d 35 0f 89 bd
       0.049339514 0.02905724 0.0613136 -0.06692354
0000e0 bf ff 25 be 47 a7 c6 bd 42 7d 44 3d 34 ac a3 3c
       -0.1621084 -0.09699874 0.047971018 0.019979574
0000f0 cf a1 6f bd 75 08 20 be c0 6f b0 bd f3 a8 d1 bd
       -0.058503922 -0.15628226 -0.086150646 -0.10237303
000100 f8 e7 fc bd 8b dd b7 3c 7c 12 7f 3d 72 73 17 3c
       -0.12348932 0.022444507 0.062273487 0.009243833
000110 92 9f 09 bc 2b e9 7c bd d2 09 3c 3d 6a 16 8a 3d
       -0.008399861 -0.061745804 0.045907803 0.067425564
000120 2b 65 42 3e 44 df 36 3d 8e 6a d2 bc 98 ab 0a be
       0.18983905 0.044646516 -0.025685575 -0.1354202
000130 fc 84 a3 bc 8b a1 2c bd 53 5b 9d bc e1 c6 8e bd
       -0.019960873 -0.042146247 -0.019208586 -0.06971527
000140 45 24 09 bd 8d 04 0b bd 1e eb e6 bd 19 71 4c bd
       -0.033481855 -0.033939887 -0.11275314 -0.049912546
000150 c8 dd 9c bd f9 8a b9 3d 9e 4f 92 bc c1 1d 49 bd
       -0.07659489 0.0905971 -0.01786023 -0.04910064
000160 b9 b7 8d 3c a4 b3 ea 3c 93 79 44 3d fb 58 24 3d
       0.01729952 0.028650112 0.047967505 0.04012392
000170 91 97 96 3d 8a 52 b3 3d c2 65 be 3d ca 08 4f 3d
       0.07353128 0.087559775 0.092967525 0.05054549
000180 55 d1 03 3d 3b fc a7 3c 51 16 3b 3c 53 54 da 3c
       0.032182056 0.020506015 0.011418895 0.026651537
000190 31 86 2c be 87 16 9a bd 6c 29 21 be 7d f4 ee bd
       -0.16848065 -0.07523828 -0.15738457 -0.11667726
0001a0 f7 b4 a9 bd b3 34 f2 bd 02 40 18 bd c0 d2 94 3b
       -0.082864694 -0.11826458 -0.037170418 0.004541725
0001b0 97 9e ac bd 1c be 7f bc 4f 71 a2 3d 04 c3 be 3d
       -0.08428686 -0.01560929 0.07931768 0.0931454
0001c0 e3 7d cb 3d d9 92 c0 3d 1e 88 83 3d 0d af a9 3d
       0.0993612 0.09403009 0.06422447 0.082853414
0001d0 2f fe 27 3c cc 00 84 3d 1e bb 07 3e 0e 95 ef 3d
       0.010253473 0.064454645 0.13254973 0.11698352
0001e0 be 03 86 3d ed f6 38 bc e4 09 be 3d aa 10 60 3d
       0.065436825 -0.01128934 0.0927923 0.054703392
0001f0 c9 bd c9 3d 3a 4f 03 3e 46 50 12 3d ff e1 af 3d
       0.09850652 0.12823191 0.035721086 0.08588027
000200 c4 d8 48 3d 91 54 18 3d 95 53 09 3e 61 93 d9 3d
       0.04903485 0.037190024 0.1341079 0.106238134
000210 c3 0f 3d 3e 8a aa d9 3d a1 62 08 3c bc 1f 27 bc
       0.18463044 0.10628231 0.008324296 -0.010200437
000220 4e 79 9d bd 08 24 27 bd aa d7 01 3d e2 17 5e 3d
       -0.07689153 -0.040805846 0.031699814 0.054221995
000230 c3 d3 e1 bd 99 54 57 bd 02 50 51 bd bf bf 16 be
       -0.110267185 -0.052570913 -0.051101692 -0.14721583
000240 ad cf 8b bd 63 1a b9 bc ad 17 0f bd dd d0 15 be
       -0.068267204 -0.02259559 -0.03493469 -0.14630456
000250 a8 01 e9 bd e8 2e 84 bc 7f 18 57 3c 4e 6f 06 3e
       -0.11377269 -0.016135648 0.013128399 0.13128397
000260 93 1b 8a 3e ca 03 bc 3e 89 f6 31 3e 8c 6e bf bd
       0.26974162 0.3672164 0.17379202 -0.09347257
000270 83 64 9d bd c7 c6 97 3c 61 02 68 3e f6 cb 3a 3e
       -0.07685187 0.018527402 0.22657157 0.18241867
000280 56 ea 79 be 21 43 25 be 08 ae aa bd 47 50 ab 3d
       -0.24405798 -0.16138889 -0.08333975 0.08364921
000290 15 af 54 3d f2 1f 1c be 49 27 8d be 97 bb 17 be
       0.051924784 -0.15246561 -0.27569035 -0.14817654
0002a0 fc 10 fb bc 82 27 a7 3d 35 fb 06 3e 67 87 a6 bd
       -0.030647747 0.081618324 0.13181765 -0.08131295
0002b0 01 19 e4 bd 6b 67 7d 3d 5c 02 bc 3c d7 38 a8 bc
       -0.111375816 0.061866205 0.022950344 -0.020534916
0002c0 91 4c 06 3e 34 c9 02 3e 86 13 7a 3e 14 21 68 3d
       0.13115145 0.12772065 0.2442151 0.05667217
0002d0 52 ec fc bc 10 c6 99 bb 03 b6 33 3e a2 91 60 3e
       -0.030874405 -0.0046928003 0.175499 0.21930555
0002e0 6e f0 42 3e 3b 4d bb bd 88 13 15 be b5 b7 5b 3d
       0.19037029 -0.0914559 -0.14558232 0.053641994
0002f0 0b 28 62 3e f2 b1 4c 3e d9 b9 59 3d b3 b4 19 be
       0.22085588 0.19989756 0.053155754 -0.15010338
000300 e0 41 3d bd 08 6b 20 3e a3 5e bc 3c 45 d7 21 3e
       -0.0462054 0.15665829 0.022994345 0.15804775
000310 e7 70 04 be 5e 23 ba bd 70 da 99 bd fe 5d 90 3a
       -0.12933694 -0.09088777 -0.07512367 0.001101434
000320 8e 89 70 3d 39 70 7e 3d a3 72 59 3e ea 71 4e 3e
       0.058724932 0.062118743 0.21235137 0.20160642
000330 52 4a 30 3e 6a 84 12 be 73 c0 6b bc fe a6 7c 3e
       0.17215851 -0.14308324 -0.014389145 0.24673077
000340 73 7d 8d 3e 28 15 26 3e 6b 3e 85 be d4 bb 3d be
       0.27634773 0.16219008 -0.26024184 -0.18528682
000350 16 e8 3c bd 02 9d 83 3d 74 7a 1a 3e 2b 9b 85 be
       -0.046119772 0.06426431 0.15085775 -0.26094946
000360 e2 93 8f be 89 dd 3c be d9 9c e6 bc 58 15 04 3c
       -0.28042513 -0.18443884 -0.028150963 0.008061729
000370 e1 58 6c 3e 11 52 37 be 20 1f 33 bd 2f 31 b1 bb
       0.2308078 -0.179024 -0.043730855 -0.0054074745
000380 6a e3 36 3d 88 51 42 bd 88 6e 17 bd ff c5 c0 3d
       0.044650473 -0.047441036 -0.036970645 0.09412765
000390 88 58 2f 3e 2a 68 88 3e 9e 92 cd bd 36 f3 3e be
       0.17123616 0.2664197 -0.10037731 -0.18647465
0003a0 e4 a8 9a bd 13 e7 b2 3d b9 8e a1 3d 28 ee 4a bd
       -0.075517446 0.0873548 0.0788855 -0.04954353
0003b0 ff cb 23 be 01 dc 52 bd 49 00 16 bc af 34 82 3d
       -0.15995787 -0.051479343 -0.009155341 0.06357705
0003c0 69 12 b0 bc ea 39 5f be a7 07 13 be 36 59 bd bd
       -0.021493154 -0.21799436 -0.14358388 -0.09245531
0003d0 0d f6 f2 3c a8 ee 27 3e aa 44 2f bd 9f 43 3e bd
       0.029658342 0.16399634 -0.042790093 -0.046451207
0003e0 10 0a 7c 3b 9a 84 a2 bd d3 26 f0 bd 71 a8 91 3c
       0.0038458146 -0.07935448 -0.11726155 0.017780514
0003f0 5e e1 29 3c 55 67 4e 3d 52 cb 60 3e 4e 68 88 3c
       0.010368673 0.050391514 0.2195256 0.016651299

conv2.bias f4 [16]
000000 ab b6 05 bd 3c 47 b5 3d 41 e1 c2 3d 2e ef d1 3d
       -0.03264491 0.088514775 0.0951562 0.10250698
000010 4b 98 66 3d c6 28 29 3e d5 3b 8f bc 20 70 df 3d
       0.05629758 0.1651946 -0.017484585 0.10910058
000020 fd bd 1d 3e 12 5f a6 bc 9f fd 81 bc 8c 2a 69 3e
       0.15404506 -0.020309005 -0.015868006 0.22770137
000030 ce de 5d 3e 46 2a 85 bd f5 56 b3 3c be 96 4a bd
       0.21667024 -0.06502204 0.02189205 -0.049460165

conv3.weight f4 [16, 16, 3, 3]
000000 3c 9f 47 be cc d4 01 be 47 8e 65 be 85 3d 86 be
       -0.19494337 -0.12678832 -0.22417556 -0.2621881
000010 a6 0c 7b be 5d 4a 88 bd 81 3e 7f 3d 7a 06 fb bc
       -0.24516544 -0.06654809 0.062315468 -0.030642737
000020 9d ce 9a 3d 67 ac b0 bd 9e 4d ae bc 72 6b d5 3c
       0.075589396 -0.08626633 -0.021277245 0.02605221
000030 6b 13 da 3c ae cb f0 bd c6 38 64 bd a0 28 84 3e
       0.026620587 -0.11757599 -0.055718206 0.25812244
000040 e6 72 d5 bd c4 32 5e bd 9d ec c5 3b 65 fe 89 3d
       -0.10422306 -0.054247633 0.0060401694 0.06737975
000050 bb b4 21 3e 05 2f a6 bd 87 f4 db bb 71 21 40 3e
       0.157916 -0.08114437 -0.0067124995 0.18762757
000060 18 32 1a be b1 d8 17 3d ce 09 16 3c 4c 38 3c bd
       -0.15058172 0.037071887 0.009157611 -0.045952126
000070 d2 8e b9 bc a8 b5 23 be ab 5f f6 bd 3c 35 5f be
       -0.02265111 -0.15987265 -0.12029966 -0.21797651
000080 6e 16 87 be 51 8c 09 3d 2c d3 58 be 1f 7a 8b bd
       -0.263843 0.03358108 -0.21174306 -0.06810402
000090 fe a3 be 3d 21 af 6a bd f2 ad 0a 3e c0 b8 45 3d
       0.09308623 -0.057295922 0.13542917 0.048271894
0000a0 c7 0b f3 3d 18 f6 5e 3c 59 d1 55 bc 19 f7 e5 3c
       0.11867481 0.013608478 -0.013050401 0.028071927
0000b0 cb f8 50 bd 45 99 f7 bb 1c 61 d7 bd 93 fc 78 3d
       -0.051018517 -0.007556113 -0.10516569 0.06078775
0000c0 4c 92 ae bd 16 ce 21 be 20 a5 e1 bc 17 db 96 bd
       -0.08523998 -0.15801272 -0.027544558 -0.07366007
0000d0 44 55 8f bd 33 55 16 be f3 2d c8 3d a5 d3 85 bc
       -0.06998685 -0.14680938 0.09774389 -0.016336272
0000e0 8b 15 c1 3d 52 b5 43 3d 50 54 32 3d 65 bf a8 bd
       0.09427937 0.047780342 0.043537438 -0.082396306
0000f0 ac 2a bf bc 28 5d 91 3d a0 4e 15 3d 1e bc 9a 3d
       -0.023335777 0.07097846 0.036451936 0.07555412
000100 51 4d 42 bd ef 11 90 3d 5c ee 16 bd 40 e7 18 3e
       -0.047437016 0.070346706 -0.03684841 0.14931965
000110 ca 82 29 3e 1f ad 40 bd 9c 22 f6 bc 01 bc 05 bd
       0.16553798 -0.0470401 -0.0300458 -0.032649998
000120 72 51 f7 ba b5 83 7b 3d 34 a3 cf 3d 81 59 5e 3d
       -0.0018868877 0.061404902 0.101385504 0.054284576
000130 80 65 bb 3d bc f5 b9 3c 2d 74 a5 3d 5a 96 14 3e
       0.09150219 0.022700183 0.080787994 0.1451048
000140 87 e2 b0 bc 3e 14 85 3c 25 d0 7c bd 0b d2 96 bb
       -0.021592392 0.016245004 -0.06172194 -0.004602676
000150 e5 77 38 3e e2 4e f7 3d 25 8d be 3d 31 18 ae bc
       0.18014486 0.120755926 0.09304265 -0.02125177
000160 34 d4 ed 3d de 2b 2e 3d 54 72 f4 bb 50 30 d3 ba
       0.1161274 0.042522304 -0.007459918 -0.0016112421
000170 eb 25 54 3c 2e 4e 95 bd aa 5f bf bd 65 fa c9 bd
       0.0129484935 -0.07290302 -0.09344418 -0.09862212
000180 6b 99 5a bc 0f c9 3e bb 8b 4b b6 bd 9c 18 0c 3e
       -0.013342242 -0.002911154 -0.089011274 0.13681263
000190 52 f7 09 3e 49 30 ce 3d a0 98 30 bd f4 20 d2 3b
       0.13473251 0.100678034 -0.043114305 0.0064126197
0001a0 cf b7 98 bc 3d 88 63 bd ed d0 e6 bc 11 81 bc 3c
       -0.018642334 -0.05554985 -0.028175795 0.023010762
0001b0 08 d7 a2 3d 28 64 24 bc e2 08 de 3d c6 ff 71 3d
       0.0795117 -0.010033645 0.10841538 0.059081815
0001c0 c4 a9 0e 3d 63 2d 47 3e 8f 11 14 be b3 ca 7b bd
       0.03482987 0.19450907 -0.14459823 -0.061472606
0001d0 3d 2f df bc 86 a4 37 be 77 26 06 be 37 0e 3c bd
       -0.027244205 -0.17933854 -0.1310061 -0.045911994
0001e0 20 7f cf 3d 3b 20 9c 3c 75 20 6f bd 8a ae 1e be
       0.10131669 0.019058337 -0.058380563 -0.15496269
0001f0 59 36 c8 bc 85 3a 45 3d 79 da 00 be a1 30 5c bd
       -0.024439977 0.04815151 -0.1258334 -0.053757314
000200 bb aa 97 bd a9 86 f9 3d ed 80 9a 3d 96 df 08 bd
       -0.07405611 0.121838875 0.07544122 -0.033416353
000210 14 68 cf 3d f8 65 f3 3d 78 a6 90 3d e1 6f 33 be
       0.10127273 0.11884683 0.070630014 -0.17523147
000220 9a 4e 40 3c 8f 27 f3 bd 84 39 84 be ac 0a 41 be
       0.01173749 -0.118727796 -0.2582513 -0.18851727
000230 1e 1c 4b 3d ab 4c 1c be 87 6d ce 3c ca 4f c5 bb
       0.04958736 -0.15263622 0.025198711 -0.0060214745
000240 db e7 38 3d 32 ea aa 3b c9 a6 de b9 3a 5d a5 3d
       0.04514299 0.0052159065 -0.00042467404 0.08074422
000250 e9 3c 01 3e 3e a6 21 bd 26 b7 02 3e d0 81 aa 3c
       0.12620892 -0.03946518 0.12765178 0.020813853
000260 19 47 6d be b7 6a 6a bd 15 56 97 bd e5 53 32 3e
       -0.23171653 -0.057230677 -0.07389466 0.17414816
000270 4b 09 44 be c4 58 23 be a9 58 9d 3d 33 53 12 be
       -0.1914417 -0.1595183 0.07682926 -0.1428955
000280 71 a7 7c be 0c ee 83 bd d3 49 f1 3d 8d 43 76 3e
       -0.24673249 -0.06441888 0.11781659 0.24049206
000290 b7 af 8a be 91 c7 ee bb 03 96 37 3d 37 95 87 be
       -0.27087185 -0.0072869738 0.044820797 -0.2648103
0002a0 97 11 7d 3d 85 37 9c bd b9 3d b1 3d e8 29 a2 bd
       0.061784353 -0.07627777 0.08654351 -0.07918149
0002b0 55 24 5e bd 5d ec 18 3e cf d8 83 bc 44 f4 7c 3d
       -0.054233868 0.14933915 -0.016094593 0.061756387
0002c0 cd 6d 00 3e 57 67 03 3d d0 8c bd 3c 4e cb 61 be
       0.12541886 0.032080974 0.023138434 -0.22050211
0002d0 aa 44 03 bc 9f f7 5e 3c 61 68 71 bd ee a3 92 3d
       -0.008011976 0.013608842 -0.058937434 0.07160173
0002e0 e4 43 b7 bc d1 79 a5 bc ab 7d 8a 3c 9c c7 7b 3d
       -0.02237124 -0.020199688 0.016905626 0.06146966
0002f0 89 8c 33 3e f7 58 bf 3d 25 ee 35 be e2 d1 4c 3d
       0.17534079 0.093431406 -0.17766626 0.050004847
000300 c7 f9 0b be 8b 10 a5 be 26 d1 90 3d af 93 ac be
       -0.13669501 -0.32239184 0.07071142 -0.33706424
000310 68 d7 08 be 61 3d 3c 3e d7 44 04 3a b9 df 5d bd
       -0.13363421 0.18382789 0.00050456583 -0.054168437
000320 ce a8 b7 3c 9e 65 11 bd 52 33 51 be 1a 30 86 bd
       0.02241936 -0.0354973 -0.20429733 -0.065521434
000330 7f 01 f6 bd 63 7e fc bd ff fc 5f bd de 58 aa 3d
       -0.12012004 -0.12328794 -0.054684635 0.08317731
000340 57 36 00 be 3b 0f 0e bd 0b 28 c7 3d 2d 1d 17 bd
       -0.12520729 -0.034682494 0.097244345 -0.03689306
000350 64 8a 81 3d c6 5b 62 3d 1f a1 c2 3d fe dc 79 3e
       0.06325224 0.055263303 0.09503388 0.24400708
000360 8f 09 66 bc c1 49 97 bd c4 75 81 bd 68 49 34 3e
       -0.014040365 -0.07387114 -0.0632129 0.17606127
000370 2c c8 0c be e3 aa e5 3c 5c 60 b6 bc 6b 34 9f 3d
       -0.13748235 0.028035587 -0.022262745 0.0777367
000380 a8 9d 60 3e 0d 22 34 3d a3 cc 38 be 0d 93 6f bc
       0.21935141 0.043977786 -0.18046813 -0.014622462
000390 77 f5 3d bd 1e 15 81 be 6f 77 e0 bc 19 91 9c 3d
       -0.04637667 -0.25211424 -0.0274007 0.07644863
0003a0 84 a7 69 3d 98 58 90 3d ce 5f 38 3c 5b 22 04 be
       0.05704452 0.07048148 0.01125331 -0.1290373
0003b0 95 7c 13 3e bd 08 e8 3b 11 0d 6d bb 2a b6 8e 3d
       0.14402993 0.00708112 -0.0036171118 0.06968339
0003c0 32 4c b8 3d e9 cc 43 3d 02 d4 8d bd 7c c4 ba bd
       0.08998908 0.04780284 -0.06925203 -0.09119508
0003d0 6b 57 4c bd 2e 76 c1 3d 84 15 67 bc a4 0c b6 bc
       -0.049888056 0.09446369 -0.014104251 -0.022222824
0003e0 53 64 a6 3d 39 61 fd 3d 85 e2 ae 3d 0c ce fa bd
       0.08124604 0.123720594 0.08539299 -0.122463316
0003f0 c8 87 b5 3d 2e a8 48 3e 0a 2f 96 be f7 b3 b4 3d
       0.08863789 0.19595405 -0.29332763 0.08823388

conv3.bias f4 [16]
000000 5d 60 ce 3e 4f ba 34 bc 9e d5 48 3e 02 b4 48 3e
       0.40307894 -0.011030748 0.19612738 0.19599918
000010 59 75 42 3e 78 48 92 3e ca d1 90 3e 71 87 b3 3d
       0.18990077 0.28570914 0.28285056 0.08766068
000020 b2 9a ad 3e 03 6e d1 3e a8 1b a1 3e 89 9e fe ba
       0.33907086 0.40904245 0.31466413 -0.0019425909
000030 55 0c 84 3d 26 8f 82 3c 0b 29 b6 3e cb 9f a2 3e
       0.06447665 0.0159374 0.35578188 0.31762537

fc1.weight f4 [120, 784]
000000 91 2d 4f 3c d6 9a 62 bc 1d 36 92 bc fe 3e a9 bd
       0.012645141 -0.013830861 -0.017848069 -0.08263968
000010 39 a4 d2 ba ea 32 c8 bb bb 43 a6 3d a3 89 0b 3b
       -0.0016070671 -0.006109585 0.08118387 0.0021291755
000020 e1 d5 16 be 38 c3 c7 bd 60 68 56 3c 60 32 9b bb
       -0.14730026 -0.09754032 0.013086408 -0.00473623
000030 04 5a 99 bc 9d d5 1f 3d 8b 8c 46 bd c7 03 66 bd
       -0.01871968 0.039022077 -0.048473876 -0.056155946
000040 f5 15 7f bd 72 85 53 3b 7b ce 3b 3c 88 d4 31 bc
       -0.0622768 0.0032275585 0.011462803 -0.010853894
000050 3d a4 96 bb 0f 38 26 3d e7 4a 1e 3d 02 0a df bd
       -0.0045972154 0.040580805 0.03864565 -0.10890581
000060 23 0b 7e bd dc 18 13 bd 93 94 89 3d ad 38 cd 3d
       -0.06202234 -0.03591238 0.067177914 0.10020576
000070 42 b5 c5 3d f3 bb 1e 3c 78 74 57 bd fe 22 90 bd
       0.09653713 0.009688365 -0.052601308 -0.07037924
000080 88 7a b9 bc 8d 52 d9 3d 0a ea 59 3d bc c3 11 3d
       -0.022641435 0.106114484 0.053201713 0.035587057
000090 55 b4 d7 bb bb a3 cc bd 49 42 ee bd e7 e5 02 be
       -0.0065827766 -0.099921666 -0.11633737 -0.12783013
0000a0 ae a4 3a bd db 2a a9 3d a3 81 17 3d 8d 63 05 3d
       -0.045567207 0.08260127 0.036988866 0.032565642
0000b0 bb 09 13 3d 32 8a c2 bb 15 18 c0 39 1d 07 5e 3d
       0.03589795 -0.0059368843 0.00036639036 0.054206003
0000c0 c8 ac d5 3c 0e 71 6f bd 44 4e 6c 3d df 7c 9b bc
       0.026083365 -0.058457427 0.057691827 -0.018980442
0000d0 17 43 cd 3d 49 1d 04 3d 86 2e bb bd c9 e7 e5 bc
       0.10022562 0.03225449 -0.09139733 -0.028064625
0000e0 65 5c 23 3c 89 38 0d 3e 75 fc b8 3d 23 eb 16 3d
       0.009970759 0.13791098 0.09032527 0.036845338
0000f0 aa f8 b0 bc 54 5e 9d bd 0e 2b a9 3b 1a f0 90 3d
       -0.021602947 -0.07684007 0.005162603 0.07077046
000100 a0 24 06 bc d7 6d 01 3b 37 ed 97 bd 15 f0 2a bd
       -0.008187443 0.0019749308 -0.07418292 -0.041732866
000110 69 57 e4 3d b1 4e 1f bd c9 f7 c7 3c bb 52 ba bd
       0.11149485 -0.038893405 0.024410145 -0.09097811
000120 1c 4b d1 bb 02 b1 c6 3d 52 bb b4 bc ae 29 8d bd
       -0.0063871276 0.0970173 -0.022061978 -0.068927154
000130 03 f6 21 be 4c 7e 2c 3c 51 10 7f bd 7d 75 56 3d
       -0.15816502 0.010528158 -0.06227142 0.05235814
000140 6b c6 47 bd 3e 4f ac bd 9d 94 b1 bd 02 f9 c5 bd
       -0.04877321 -0.08413552 -0.08670924 -0.09666635
000150 ef d3 2f bd 1c 05 91 3d 4a 8b 74 3d 31 b2 1c be
       -0.042926725 0.07081053 0.05970315 -0.1530235
000160 4e 65 9f bd 8a 6e 30 bc a0 3e b9 bc 38 27 34 3d
       -0.07782994 -0.010768542 -0.02261287 0.043982714
000170 0a 17 88 3d 14 b8 c2 3d 16 c6 d2 3c 36 1e a6 3d
       0.06645019 0.09507766 0.02572922 0.08111231
000180 8a 7f 81 bd 94 58 5b bd aa e8 09 3c 0e 9b 18 3e
       -0.06323154 -0.05355127 0.008417288 0.14902899
000190 18 f0 1b 3e 45 82 16 bd cb 96 cf 3d dd 2a b7 3d
       0.15228307 -0.03674533 0.10136183 0.089437224
0001a0 56 ba 34 3c 6e fa 7e bc 7d 5a 31 3d d0 ef bb 3c
       0.011030754 -0.015562637 0.043299187 0.0229415
0001b0 bc 2e 6f bd 73 d7 2c bd 7c bd d5 bc 3b 90 8f 3d
       -0.05839418 -0.042197656 -0.02609133 0.07009932
0001c0 38 2b d5 bc f8 43 8e 3c c7 0d 97 3d e2 42 cf b9
       -0.026021585 0.017366394 0.07375675 -0.00039531948
0001d0 4e fc e3 3b c2 e3 6d 3c 67 ac a4 bd 75 a1 ab bc
       0.0069575673 0.014519634 -0.08040696 -0.020951012
0001e0 9f 82 61 bd 1d f7 09 3d e7 dc 9d bc 93 17 ba bd
       -0.05505621 0.03368293 -0.019270374 -0.09086528
0001f0 d5 da 77 bc f3 69 b8 bd 43 9e da 3c 02 62 8c 3b
       -0.015127857 -0.09004583 0.026686793 0.0042841444
000200 e6 ae b7 bc f4 e9 22 bd 65 67 78 bd 84 e4 0f 3a
       -0.022422265 -0.039773896 -0.06064548 0.00054890686
000210 43 a2 75 3d 5d 4b 9d 3d c8 c9 4c 3d 7f eb 80 bd
       0.059969198 0.0768039 0.04999712 -0.06294917
000220 5e e4 12 bd 2d 5c 9d bd d4 4d 35 3d 27 22 40 bd
       -0.03586232 -0.07683597 0.044263676 -0.04690757
000230 cc f3 74 3d 22 72 bf 3c 1a 88 8e bb 9b be 44 3d
       0.059802815 0.023369852 -0.0043497207 0.048033338
000240 bc 2f d0 bc 6d 44 ec 3c 13 f9 88 3d 84 4b 88 3d
       -0.025413387 0.028841222 0.06688132 0.066550285
000250 aa 1d 3f 3d 26 77 dd 3b d1 5d 7e bb 0f 68 83 bc
       0.04665915 0.0067585884 -0.0038813243 -0.01604083
000260 f9 1e 8b bc b6 ca 2d 3d 8d ba 99 bc bd 2d 28 bd
       -0.016982542 0.04242965 -0.018765712 -0.041059244
000270 dc 0f 20 3c b6 bb 80 39 f4 45 e2 39 70 01 3f bd
       0.009769406 0.00024553918 0.00043158198 -0.04663223
000280 b5 50 35 3d e0 18 9a 3a 17 c0 0f be 98 a3 be 3c
       0.04426642 0.0011756681 -0.1403812 0.023271367
000290 41 d0 b9 3d 79 bb 24 bd bc f4 62 3c b4 58 39 3e
       0.090729244 -0.04021785 0.013852295 0.18100244
0002a0 37 94 16 be 83 71 c7 bd cd e5 9f 3d 68 cb bb 3d
       -0.14704977 -0.097384475 0.07807503 0.09169656
0002b0 1d 23 8f bd 72 1d 6e bc 6b a6 27 3d 37 0a d1 bb
       -0.06989119 -0.0145333875 0.040930193 -0.0063793915
0002c0 0a 63 d0 3c 36 8d ae 3d 04 d9 0c 3a f9 38 b2 bd
       0.02543785 0.085230276 0.0005372914 -0.08702273
0002d0 03 17 86 bd 49 f9 0c 3b 7b 55 f6 3c e8 c2 90 bd
       -0.06547358 0.002151089 0.030070057 -0.070684254
0002e0 b6 4e 65 3d 14 f4 53 bc b7 e5 99 bd 60 00 7a 3c
       0.055983268 -0.012936611 -0.07514518 0.0152588785
0002f0 14 7f cc 3d 59 c0 17 3c e7 bb 31 3d 23 93 9c 3d
       0.09985176 0.009262168 0.04339209 0.076452516
000300 d5 03 e8 3d 60 aa 1e 3d 39 03 e3 3c 1b ca a8 3d
       0.11328856 0.0387367 0.027711498 0.082416736
000310 10 f2 cc bb e8 f4 a3 3d 07 32 41 3c fa fb bd bd
       -0.006254442 0.080056965 0.011791713 -0.09276576
000320 3d c9 ae 3c 78 78 b9 3d 2e 0a 67 bd 8a 54 03 3d
       0.021336192 0.09056181 -0.056406192 0.032063045
000330 25 66 71 bd 08 59 2e bb 98 7c 14 3d 91 f6 f9 3a
       -0.058935303 -0.002660336 0.036251634 0.0019070675
000340 c0 ee 5d bc 97 40 bf 3c ee 1e 52 bd f6 ae a6 3d
       -0.013545692 0.023346229 -0.051299028 0.0813884
000350 04 4e 55 3d 7f 8c 45 bc 22 c2 31 bd f7 d1 0e 3c
       0.052076355 -0.012057423 -0.04339803 0.008717052
000360 ce 11 4a bd bc dd 4d 3c a1 83 c9 3c d7 3e b0 bc
       -0.049333386 0.012565073 0.024598898 -0.02151434
000370 a3 cf 23 be 4a 53 ad bd 05 ae 6b 3d f0 24 72 3d
       -0.15997176 -0.08463152 0.057539005 0.059117258
000380 6f ae b1 3d a0 84 73 3d 03 89 d5 3c 5b 14 b6 bb
       0.08675849 0.059452653 0.026066309 -0.005556626
000390 68 86 a9 ba 0d c4 09 bc 2d 8d 90 3b 4b ee e3 bc
       -0.0012933733 -0.008408559 0.0044113607 -0.027823588
0003a0 9e cc d6 3d 76 ee 29 bd b5 79 3f bd 65 2a 33 3c
       0.104882464 -0.04148718 -0.04674693 0.010935401
0003b0 e9 26 55 bc 51 f7 b8 3c 96 36 8f 3c 00 dc 2a 3d
       -0.013009765 0.022578867 0.017482083 0.041713715
0003c0 7b d0 b3 3d 47 fc c6 3a fc 41 45 bd ed 95 79 3c
       0.08779999 0.0015181386 -0.04815863 0.015233499
0003d0 e7 92 f4 bc 8d 1e 1c 3d 28 1e 2c 3d 1d e2 4b 3e
       -0.029855205 0.038115073 0.042020947 0.19910474
0003e0 6e 61 ab 3d 1a 99 1e bc 10 40 8b bd 4f b3 5c 3d
       0.083681926 -0.009680057 -0.06799328 0.05388194
0003f0 26 7f 89 bd e2 f0 a3 bd b7 b3 dc 3d 00 0f 81 bc
       -0.06713705 -0.08004929 0.107764654 -0.015754223

fc1.bias f4 [120]
000000 f3 bd d2 3d f8 41 14 bd 84 76 b0 3c 76 dc d6 3b
       0.10290136 -0.036195725 0.021540888 0.0065570427
000010 c8 7e 5a 3d 37 7d 19 bd 44 68 e5 3b 98 da 0e bc
       0.053343564 -0.03747293 0.007000955 -0.008719109
000020 1f dd 58 3d 2c 14 5f 3d 10 d4 7a 3d 51 4e 53 bd
       0.052945253 0.054462597 0.061237395 -0.05158836
000030 63 7a 2a bd 19 5b 72 3d bb 8f f0 3d 41 3a e2 3d
       -0.041620623 0.05916891 0.117461644 0.11046267
000040 10 bd ef bc 75 07 f7 3d bd 61 01 bc 58 6b a4 ba
       -0.029264957 0.12061969 -0.007896838 -0.0012544198
000050 b9 14 41 3d 89 27 26 3c e4 84 0f bd 27 1e 8d 39
       0.047138903 0.010141262 -0.035038844 0.0002691608
000060 ec 7e 70 3d f1 92 e6 bb 34 e7 ca 3d 3f 2b 23 bd
       0.058714792 -0.0070365597 0.0990738 -0.039836165
000070 61 82 28 bd 6e 95 9a 3d ff 9c c5 bc 54 10 c0 bc
       -0.041139964 0.07548033 -0.024122713 -0.023445286
000080 39 74 a8 3d df f6 19 bc cd a3 62 bd 94 be ca bc
       0.08225293 -0.009397238 -0.055331994 -0.024749078
000090 85 00 7b bd 44 4f 12 bd 1a b1 44 3d 36 ce 4f 3d
       -0.061279792 -0.035720125 0.04802046 0.050733767
0000a0 67 cd 09 bc 8a a4 db 3d 51 bd fb 3b de 02 98 3d
       -0.008410788 0.10724743 0.0076824804 0.07422422
0000b0 bc 64 e6 bc 11 b2 56 3d d8 e0 67 bc 2f ed 10 bd
       -0.028124206 0.05241591 -0.014152728 -0.035382446
0000c0 2e fa eb 3c 05 a8 df 3d 82 ff eb 3d d3 63 a0 3d
       0.028805818 0.10920719 0.115233436 0.0783154
0000d0 eb ee 89 3c 62 57 6f bd d9 ad 92 3c 76 6c 90 3d
       0.016837558 -0.058432944 0.017905163 0.07051937
0000e0 eb ad 18 bc 22 80 ab bc 6b dc 2a bd 4a a1 18 3c
       -0.009318809 -0.020935122 -0.041714113 0.009315798
0000f0 43 d1 7f ba 2d ee d3 3b 7c 84 d5 3d f0 f3 26 bd
       -0.00097586605 0.0064676018 0.1042566 -0.04075998
000100 b6 46 9a 3d 31 c2 26 3d 03 ec 71 3d 39 73 01 3e
       0.07533018 0.04071254 0.05906297 0.1264161
000110 77 f7 0b bd 88 92 29 3d 7e 4f bd 3d ac 01 ef 39
       -0.034171548 0.04139951 0.092436776 0.00045586878
000120 2a 91 10 3c 0f ff 14 bd 7c a6 8c 3d 03 9e e8 ba
       0.008823672 -0.036376055 0.06867692 -0.0017747286
000130 49 50 fa bc 8f 60 1c 3c 32 27 2b 3d c0 81 ce bb
       -0.030555861 0.009544506 0.041785426 -0.0063020885
000140 ca b9 2c 3d 0b 2e f2 3d 13 63 08 3d a0 6f 16 bd
       0.04216937 0.11825188 0.03329761 -0.036727548
000150 73 44 be 3c ee 66 d9 bc 2e de a5 bc d7 64 b1 bc
       0.023225999 -0.026538339 -0.020247545 -0.02165453
000160 33 53 1d 3d 67 ad 28 bd 87 a8 0e bd 47 13 9d bd
       0.038409423 -0.041180994 -0.03482869 -0.076696925
000170 f0 81 a2 bd 3d d7 ca 3c c3 89 86 3d cd d5 5a 3d
       -0.0793494 0.024760837 0.06569245 0.053426553
000180 43 d6 a9 3c 75 15 3e 3d 4f df f9 3b 4c c7 a7 3c
       0.02073205 0.04640718 0.0076254974 0.020480774
000190 5f d6 11 bd 0b a3 9e bc 7a 63 fe 3c 06 d3 09 3d
       -0.03560483 -0.019364854 0.031053293 0.033648513
0001a0 02 03 af 3c ae ae 53 3c d2 47 31 3d b9 a0 50 3c
       0.021363739 0.012920065 0.043281384 0.012733632
0001b0 34 f2 fd bb 34 8a 20 3d 29 f3 f2 3d 82 84 11 bc
       -0.00774982 0.0391943 0.11862785 -0.00888169
0001c0 61 ea 66 3d c4 89 88 3b 78 c1 93 3c ca 0c 40 bc
       0.056375865 0.0041668136 0.018036589 -0.011721799
0001d0 a5 a9 40 bd a8 b1 05 bd 7e 8f 8b 3b ef e5 81 3d
       -0.047036786 -0.03264013 0.004259049 0.063426845

fc2.weight f4 [84, 120]
000000 55 32 84 3d 6b 26 91 bd 60 57 45 bc ea 5b 83 3c
       0.064549126 -0.07087406 -0.012044758 0.016035039
000010 2a 1c 0b 3e 88 c2 9d bc 89 20 1e bd 69 3d ff 3c
       0.13584962 -0.019257799 -0.038605247 0.031157212
000020 f6 6e d8 3c 5a d6 4d bb 32 51 97 bd b2 35 0a 3d
       0.026420098 -0.003140828 -0.07388534 0.033742614
000030 c7 b7 c3 3d 1b 9e 90 bc f0 d5 cf 3b cf e2 22 3d
       0.09556537 -0.017653516 0.006342642 0.039767083
000040 79 68 ad 3d e4 9c 4b 3e e2 9a 83 3d 14 fe 96 bd
       0.08467192 0.19884068 0.06426026 -0.0737268
000050 fe 71 90 bc 6b 78 53 3d 0a ca 2e 3d cc fd 96 3d
       -0.01763248 0.05162851 0.04267315 0.07372627
000060 d2 c0 14 bd da ff 91 bd 3e 34 8e bd 7a 86 9a 3d
       -0.0363167 -0.07128878 -0.06943558 0.075451806
000070 f3 c8 8a bd 0f e5 8c bd bd 84 c6 bd 97 02 29 bd
       -0.06776609 -0.06879627 -0.096932866 -0.041262235
000080 ab 34 ee 3c 93 86 65 3d 70 5f c1 3d 0c df ae bd
       0.029077848 0.056036543 0.094420314 -0.085386366
000090 bc 51 cb bd 0c 12 70 3d 2a d0 91 3d 74 b3 ab bd
       -0.09927699 0.05861096 0.07119782 -0.08383837
0000a0 f8 68 9f 3d 91 52 79 3c 6e 00 04 bc bf 79 9d 3c
       0.07783693 0.015217439 -0.008056743 0.019223092
0000b0 5c 0f 9d 3d 6d 68 31 3d 06 12 53 3c 9d 8a 94 3d
       0.07668945 0.04331248 0.012882715 0.07253001
0000c0 06 47 58 3d f9 a5 39 3d 17 f9 e6 3c 41 32 aa 3d
       0.05280211 0.0453243 0.028194947 0.083103664
0000d0 81 93 49 3d c0 d9 8f 3d d0 3c fd 3d ec a8 ad 3d
       0.049212936 0.070239544 0.12365115 0.08479485
0000e0 e2 72 c1 bc a2 4a 54 bd 6b 03 9a bc 7d f6 4c be
       -0.02361435 -0.051828988 -0.018800458 -0.20015903
0000f0 c3 6f 98 bc b6 06 0f 3c ea 22 ab bd 8c c7 00 3d
       -0.01860798 0.008729627 -0.08356269 0.031440303
000100 9b 9e 77 3c 47 c3 39 bd 2c 9a 4d bd 6d 32 8e 3d
       0.015113498 -0.045352247 -0.050195858 0.06943212
000110 f6 3f 0b 3b fc c5 d1 bd 1c ce 67 bd c5 3c 80 bc
       0.002124784 -0.10242841 -0.056593046 -0.015653977
000120 67 36 d8 bd bf 80 a2 3d fa 2c 3a bd 06 47 c5 3c
       -0.105572514 0.079347126 -0.04545305 0.024081718
000130 4c dc b0 3d 6e 60 5e bd 4e 8e c2 3d 98 66 18 3e
       0.08635768 -0.05429118 0.09499799 0.14882886
000140 a7 79 6d 3c 56 1f 83 bd 28 27 99 3d 21 82 a2 3d
       0.014494336 -0.06402461 0.074781716 0.07934976
000150 a3 9e 9d 3c e6 73 9f 3a ea 62 3e 3d 6f e9 ad bb
       0.019240683 0.0012165278 0.04648105 -0.0053073685
000160 8d f6 15 3d f8 e2 98 bc b7 e1 24 bd ad 03 88 bd
       0.036612082 -0.018662915 -0.04025432 -0.06641326
000170 be 65 2d bd 95 dc 27 bb fd e6 b6 3d ab 5d ac bd
       -0.042333357 -0.0025613655 0.08930776 -0.08416303
000180 42 9c be 3c 55 0d cf bd f4 0e d6 3d da cf b0 3d
       0.023267869 -0.10109965 0.10452071 0.086333945
000190 af 7e 9b bd 52 14 e3 bb af 20 13 3c 22 54 fd bc
       -0.07592522 -0.0069299126 0.00897996 -0.030923907
0001a0 32 3c 83 bd f1 54 ba 3d a7 4f 70 3d e5 6e b7 3d
       -0.06407966 0.090982325 0.058669712 0.08956698
0001b0 91 7e 52 bb 66 4d 73 3d 62 4d 80 bd 8a 4a 34 3e
       -0.0032118896 0.059399985 -0.062647596 0.1760656
0001c0 b3 d3 da 3d 6e 70 83 3d ef cf d9 3d f9 b3 bc bb
       0.1068491 0.06417929 0.10635363 -0.005758759
0001d0 46 ac 72 3c 7b 6f 38 bd 96 d9 a2 3d 6f 59 ea bd
       0.014811581 -0.04502819 0.079516575 -0.11442839
0001e0 b6 50 e9 bc c4 4c 13 3d da 5f 16 3e 0a bb b8 3d
       -0.028480869 0.03596188 0.14685002 0.0902005
0001f0 b3 c6 a5 bd 0c 8d 5a 39 e9 b8 c4 bd f3 33 3b 3d
       -0.080945395 0.00020842644 -0.09605581 0.04570384
000200 11 fd 2e 3d e0 24 3b bd c3 e6 7f 3d b2 75 a4 3d
       0.04272181 -0.045689464 0.06247593 0.08030261
000210 68 aa 97 bd 36 a6 f3 bd 21 af 86 bc e8 86 da 3d
       -0.07405549 -0.118969366 -0.01644093 0.106702626
000220 3d ea b4 bc 62 29 e7 bd ed 4e 0e 3d 18 23 95 bd
       -0.02208435 -0.1128719 0.03474324 -0.07282084
000230 c6 20 b8 bc 26 f5 8b 3b 66 2d 99 3d 6c fd 51 ba
       -0.022476565 0.0042711673 0.07479362 -0.000801048
000240 f4 18 ee bb 93 44 86 bc b8 66 62 bc 0a 04 06 3e
       -0.0072661582 -0.01639012 -0.013818435 0.13087478
000250 26 0a c4 bc 0e a8 b6 3c 31 44 56 3d 14 49 32 bd
       -0.02393062 0.022296932 0.052311126 -0.043526724
000260 04 79 20 be 90 ac 52 3d d5 42 8e 3d ab cf d4 39
       -0.15671164 0.0514341 0.06946341 0.00040590516
000270 d6 2d 9f bd cb 24 b5 3c 27 66 10 3d 35 3c d8 3b
       -0.077724144 0.02211227 0.03525367 0.006598974
000280 d2 49 b8 bc 70 d5 10 be a0 4a 07 3e 3e 0d 44 be
       -0.022496138 -0.1414392 0.13212061 -0.19145676
000290 07 41 d1 3d 02 59 e0 3d c5 35 7f bd 4d ce 4f bd
       0.10217481 0.10954477 -0.062307138 -0.050733853
0002a0 6b 36 31 be e1 67 a5 3b 44 31 ff 3d 34 f9 1a 3d
       -0.17305915 0.0050477837 0.124605685 0.037835315
0002b0 90 85 c4 3d 53 f6 e4 bc c8 04 44 bd c1 89 2f bd
       0.095957875 -0.027949488 -0.047856122 -0.04285598
0002c0 2b f4 94 3d 00 a2 82 bd 42 5f 53 3d 0b 32 98 bd
       0.07273134 -0.06378555 0.051604517 -0.0743142
0002d0 7e 34 78 3d c8 ca 14 bd ee db 57 3d c1 5d a8 3d
       0.060596935 -0.0363262 0.052699976 0.08221007
0002e0 d3 03 0e 3d d9 07 81 bd dd 28 ba 3d 0f bc 18 3d
       0.034671616 -0.06300325 0.09089825 0.03728872
0002f0 a7 27 b5 bd 4f 3b 76 3d 92 1b c5 bb 33 d2 0e bc
       -0.08845454 0.060115155 -0.0060152495 -0.008717108
000300 55 6d a4 3c ae 5d 2e bd 98 f3 cf bc 2a 02 91 3d
       0.020071665 -0.04256981 -0.02538471 0.07080491
000310 e4 4d 6f bd 1a b7 02 3d d0 f6 bd bc 1f 36 b1 bd
       -0.05842389 0.0319129 -0.023188978 -0.08652901
000320 f2 9d d6 3d 1d e2 b0 3d 0e 43 35 bb 53 d1 43 3a
       0.104793444 0.08636878 -0.0027658376 0.00074698514
000330 e6 cc 81 3c 91 f6 c0 bd 3b b8 cd 3c 8a 8c 8f 3c
       0.015844774 -0.09422029 0.025112262 0.017523069
000340 d3 3d a4 3d 23 bb ce bd 78 98 f7 3c f6 99 90 3d
       0.080196045 -0.10094287 0.03022407 0.07060616
000350 6a 4d ec bc 5a 73 ef bd bc 2e 99 3d 3d 1f 07 be
       -0.028845508 -0.116919234 0.07479617 -0.1319551
000360 1c 82 ec bd 4d 75 d8 3d a4 37 1a be 21 db 75 3c
       -0.11548254 0.10569248 -0.15060288 0.015005858
000370 5b 9d 7f bd 30 62 a7 3d 5a c6 e2 3d b2 8d 30 bd
       -0.062405925 0.08173025 0.11072989 -0.04310388
000380 db d7 3e bd c7 56 8b bd 05 31 1c 3d 32 25 f6 3c
       -0.046592575 -0.06803661 0.038132686 0.030047033
000390 78 01 5a 3d b5 29 02 3e d7 91 2e bb 7a fe 01 be
       0.053224057 0.12711222 -0.002663722 -0.12694731
0003a0 5c fd 17 3d 8d c7 66 3d 08 32 a4 bd 04 5b 56 bd
       0.037106857 0.05634265 -0.08017355 -0.052332893
0003b0 54 51 e7 bd 1b 50 85 3d be a5 cc 3c 44 98 b3 3c
       -0.11294809 0.065094195 0.024981376 0.021923192
0003c0 ce 82 01 3e 61 2c a0 bb fb 86 1d 3e c2 18 f9 3c
       0.12647554 -0.004888103 0.15383522 0.030407313
0003d0 f3 24 26 bb d1 f7 12 3e 20 e4 08 3e df c5 34 ba
       -0.0025351613 0.14352347 0.13368273 -0.000689594
0003e0 63 6b d2 bd db 1d 70 bd 4b 76 7d 3d d4 14 0f bd
       -0.10274389 -0.058622222 0.06188039 -0.034931973
0003f0 e8 fb 8a bd b8 3a 4c 3d ad 70 bd bd 9d 65 03 3e
       -0.067863286 0.049860686 -0.09250007 0.12831731

fc2.bias f4 [84]
000000 f7 86 b4 bc f6 35 af 3d 2a 0d 53 bc ee b6 4b 3d
       -0.022037013 0.08555214 -0.0128815565 0.049735002
000010 fb c5 84 bc c0 95 d3 bd a5 03 df 3d 7f e8 a9 bd
       -0.016207686 -0.10331297 0.10889367 -0.08296298
000020 34 d2 1a bd 07 89 1c 3e 24 73 dc 3b 94 63 a1 3d
       -0.03779812 0.15286647 0.006727593 0.07880321
000030 cd 38 d1 bc d8 7e 98 bc 18 bc b3 bd a1 3a 76 3d
       -0.02553978 -0.018615171 -0.087761104 0.060114507
000040 fc 71 97 3d aa 0c 6c 3c 05 23 f4 bd ca fd c2 bd
       0.07394788 0.014407316 -0.11920742 -0.09521063
000050 2e 30 b5 3d 07 c5 2a bd 37 c9 a7 3c 80 3f a8 bd
       0.0884708 -0.041691806 0.020481689 -0.08215237
000060 18 55 e3 3d 0b 5d 94 3d 8c 56 63 ba 10 98 45 bc
       0.11100215 0.07244309 -0.0008672259 -0.01206018
000070 1f 2f b9 3d ff d3 e5 3d 7c ac f1 3c 33 bb 88 3d
       0.09042191 0.11222076 0.029501192 0.066763304
000080 2b 7f 70 bb ed 85 29 3d 53 34 85 3d 2c 3a 75 bd
       -0.0036696892 0.041387487 0.06504121 -0.05986993
000090 02 f8 27 bd 25 90 88 bc b4 b4 c0 3c fd a2 b9 3d
       -0.041008003 -0.016670296 0.023523666 0.09064291
0000a0 1a e3 0c 3e 0e 2c 7f bd 9f f2 79 3d 47 60 0c 3b
       0.13758507 -0.062297873 0.061022397 0.002141969
0000b0 d0 58 01 3e 5d 12 8e 3d 46 a7 2b 3d 15 85 b5 bc
       0.12631536 0.06937096 0.04190757 -0.022158185
0000c0 c0 9e 51 3d 7f a0 de bc 31 08 4a 3d c5 bb c7 3c
       0.051176786 -0.02717614 0.04932422 0.024381528
0000d0 5c fc fd bc 15 83 86 bd c6 43 8b bd 5c 0a 1e 3e
       -0.031004123 -0.06567971 -0.06800036 0.1543364
0000e0 89 2c b2 3d ff 59 dd 3c 1f c2 25 3e 16 cb ac 3d
       0.08699901 0.027020453 0.16187333 0.08437173
0000f0 75 d6 13 3e 0c 28 fa bc 57 61 1a 3d 9a 30 54 3d
       0.14437278 -0.030536674 0.037690487 0.051804163
000100 cf 38 93 bd 1d 3e 0f bd 84 b5 3e bd db 23 96 3d
       -0.0718857 -0.034971345 -0.046559826 0.07331058
000110 a5 9a fc bc 81 26 8c bd 46 49 b5 3d b6 39 d8 3d
       -0.030835459 -0.068432815 0.088518664 0.105578825
000120 a6 9b a2 3d 8b 4c 9e 3d 68 23 a9 bc b9 92 9f 3c
       0.07939844 0.07729443 -0.020646766 0.019479143
000130 48 4f ab 3c f5 ea a5 3c 6e a2 20 bd bb 2b 69 bc
       0.020911828 0.020253638 -0.039217405 -0.014231618
000140 08 bc 6c 3d 54 a3 f5 3d 11 7b e0 bd 18 87 2a 3e
       0.057796508 0.11994043 -0.10960973 0.16653097

fc3.weight f4 [36, 84]
000000 c4 28 85 3d 48 ab 95 bd d7 82 2c be be 01 ab be
       0.06501916 -0.0730806 -0.16846786 -0.33399767
000010 9a 93 ad bd c2 ac 04 3c 89 d3 44 3c e5 ca b4 bd
       -0.084754184 0.008097829 0.012013325 -0.088277616
000020 d2 ba bf 3d 45 de dd bd bb 30 94 3b e6 3e 0d 3e
       0.09361805 -0.1083341 0.0045224107 0.13793525
000030 9a b0 0c 3e 78 8a 6b be 8f ba 43 3d d3 93 b8 3d
       0.13739243 -0.2300204 0.047785338 0.0901257
000040 c7 e1 cb bd d0 27 a0 bd 62 19 8c bd eb 40 51 be
       -0.09955173 -0.07820094 -0.06840779 -0.2043492
000050 46 c4 40 bd 43 58 2d 3d af b1 fd 3d cb cb ec bd
       -0.04706218 0.0423205 0.12387406 -0.11562308
000060 71 4b fe bd 83 7e 98 3d be e7 9d bc 0c 18 e9 bd
       -0.12416733 0.07446005 -0.019275542 -0.1138154
000070 f3 88 14 3d 84 f0 18 3e 4d b8 e6 3c a0 3e 70 bd
       0.036263417 0.149355 0.028164053 -0.058653474
000080 a2 74 8c bd 75 38 57 3c 58 00 20 3c d1 70 f1 3d
       -0.068581834 0.013136019 0.009765707 0.11789096
000090 00 c6 12 3c 41 09 5b be ce 05 8f 3c 3f 78 f7 3d
       0.00895834 -0.21390249 0.017458823 0.12083482
0000a0 25 1d 1b bb 47 fb 20 3e 75 6c a0 bd a6 89 4f bd
       -0.0023668495 0.15720855 -0.078331865 -0.05066838
0000b0 4b 4b 38 be c6 d1 c3 bc 08 e0 f9 3d e5 aa 26 be
       -0.17997472 -0.023903739 0.12200934 -0.16276129
0000c0 f7 e0 9f bd 99 42 da bd 6d 62 c3 3d 0a e2 b3 bd
       -0.078065805 -0.10657234 0.095402576 -0.08783348
0000d0 f0 ff 20 bd 5e b4 16 3e 83 6a c1 3c 91 dc 8d 3d
       -0.03930658 0.14717242 0.023610359 0.06926835
0000e0 71 17 02 bd 2c 41 d9 3c b0 c9 56 bc 0c 0b 19 bd
       -0.031760637 0.026520334 -0.0131096095 -0.03736405
0000f0 43 61 12 be 25 23 b2 bd b3 6c 04 be 8c d5 54 3d
       -0.14294915 -0.086981095 -0.1293209 0.051961467
000100 e7 1c 22 be cf 5f cd bd 0c 21 66 3e 95 b1 ea bd
       -0.15831338 -0.1002804 0.22473544 -0.11459652
000110 73 ce 9e 3d a4 b0 34 3e 39 aa e4 bd 43 ff 20 bd
       0.07754221 0.17645508 -0.1116528 -0.039305937
000120 29 45 0c 3d e6 96 b5 bd 2e 01 07 3d 7c fb f0 bd
       0.034245644 -0.08866672 0.03296011 -0.11766717
000130 b4 b5 0e 3d b0 fa e7 3d a3 6d 03 3e 2d 17 1e 3d
       0.034841254 0.11327112 0.12834792 0.03859632
000140 e7 c5 b4 bd bd 66 17 3e e7 20 d2 bd 1e ee 91 3c
       -0.088268094 0.14785285 -0.10260182 0.017813738
000150 26 e4 05 be f5 2c f6 3d d1 8b 59 3d ce 12 07 be
       -0.13075313 0.120202936 0.053111855 -0.13190767
000160 8a 1b 85 3d 3d 1c c2 3d 1a c9 2b 3d 6f 4d 25 be
       0.06499393 0.09478042 0.041939832 -0.1614282
000170 2e 03 97 bc 52 a5 0f be b6 e3 83 bd f4 82 a1 3c
       -0.018434133 -0.14027908 -0.06439917 0.019715764
000180 86 4e 42 be 65 8d c5 bc 90 85 23 3d 69 92 c1 3c
       -0.18975267 -0.024115274 0.039922297 0.023629384
000190 9b 77 20 3e ea 6d 5a 3d d1 77 7d bd 29 01 cf bd
       0.15670626 0.05332748 -0.061881844 -0.10107643
0001a0 76 32 0e 3e 91 83 7e 3c a1 2c fc bc 2a 58 b8 bd
       0.13886437 0.015534298 -0.030783 -0.09001191
0001b0 fd 14 2a 3b 65 00 9f bb 87 73 ea bd 13 bc d8 bc
       0.0025952451 -0.004852342 -0.11447816 -0.026456868
0001c0 ed 06 ad 3c 5f 6a cd 3c b2 90 ad bd fc d1 bf 3d
       0.021121467 0.025075136 -0.08474864 0.09366223
0001d0 50 86 a5 3d a4 bf b0 3d 98 59 9b 37 d4 b7 58 be
       0.08082259 0.086303025 1.851916e-05 -0.21163875
0001e0 dd 13 ef bd 08 1b 38 be 2c 54 63 3d df 98 85 bc
       -0.116737105 -0.17979062 0.055500194 -0.016308246
0001f0 ae 3a 9f 3d 30 1a 6e bd ee d2 ec ba 5d 17 9b bd
       0.07774864 -0.058130443 -0.0018068233 -0.075728156
000200 cf 2d 01 be 07 d4 7a 3c 76 e3 d6 bd 16 14 3d be
       -0.12615131 0.01530934 -0.104926035 -0.18464693
000210 57 57 1b be a3 d5 44 bc 33 24 1f be f9 d8 18 3e
       -0.15170036 -0.012013826 -0.15541153 0.14926518
000220 be a0 39 3e a0 e2 5c bd f7 9d 22 3d af 09 a2 bd
       0.18127725 -0.053927064 0.03970143 -0.07912003
000230 4e 9c e0 bd 66 3c 10 3d a9 83 81 bd fc 90 b4 bc
       -0.10967313 0.03521385 -0.0632394 -0.02204179
000240 52 10 6d bd 72 d9 b0 3b e3 76 38 bc 27 0a f7 3d
       -0.057876892 0.0053970153 -0.011258814 0.12062483
000250 b8 05 16 bd c2 a2 c8 bd a9 a9 b6 3d bb b9 67 be
       -0.036626548 -0.097966686 0.08919079 -0.22629444
000260 de 5c f1 3d 41 21 0e 3e ec 1e 9f bd a0 d3 2d be
       0.11785291 0.13879873 -0.0776957 -0.1697526
000270 03 46 2e 3d db b9 91 3d 75 ae 08 bd bb b7 0f be
       0.042547237 0.07115527 -0.0333695 -0.14034931
000280 58 24 fe 3d 06 62 53 3d 6f c9 d5 bd d3 59 41 3d
       0.12409276 0.051607154 -0.10438811 0.047204804
000290 81 04 39 bd 26 b1 6a be 74 cc 03 be 22 60 9f 3d
       -0.04517031 -0.2291914 -0.12870961 0.07782008
0002a0 e0 fe 11 3e 51 c4 10 be bd 30 8a bd e1 e9 62 bd
       0.14257383 -0.14137389 -0.06747577 -0.055398826
0002b0 92 24 67 bc ac 14 df 3b d5 43 5e bc 48 fc 62 be
       -0.01410784 0.006807884 -0.013565977 -0.2216655
0002c0 af 52 b6 3c c2 f1 7b be 44 31 34 3d 93 6a cd bd
       0.022256223 -0.24603942 0.043992296 -0.10030093
0002d0 8c 43 dc bd 20 52 85 3d ee 00 8b bd cd 3c 50 bd
       -0.10755071 0.06509805 -0.06787287 -0.050839234
0002e0 94 10 76 bb 4d 1c 90 bd 9e f8 d4 bd c7 59 ae bd
       -0.0037546502 -0.07036648 -0.103989825 -0.085132174
0002f0 c2 aa c7 bd b0 47 0b be 37 48 56 3d a7 08 4f bd
       -0.09749366 -0.13601565 0.052314963 -0.05054536
000300 25 e3 ec 3d a1 45 09 bd a8 41 8b bd cf 6b 1d be
       0.11566762 -0.03351367 -0.06799632 -0.15373157
000310 98 75 d0 3d 27 2f 26 3e d1 b2 0b bd 38 90 f1 bd
       0.10178679 0.16228925 -0.03410608 -0.11795086
000320 09 e8 93 bc 37 b7 a8 3d 9f 76 4c 3d 65 ba f9 bd
       -0.018054979 0.082380705 0.049917813 -0.12193755
000330 74 81 61 bc 5d e4 4e 3d 5f 4e 01 bb 4f ab 05 3e
       -0.013763774 0.050510753 -0.001973055 0.1305363
000340 5f 92 b1 bd 2e 33 3a 3c 5c a4 ac bc c0 46 e1 bc
       -0.08670496 0.011364741 -0.021074466 -0.027499557
000350 d9 79 c3 bc a1 34 d2 3d 91 5a 24 be 46 8a 0d 3b
       -0.023861812 0.102639444 -0.16050173 0.002159731
000360 9b 81 2b be 30 ff 89 bd 0e da 69 bd 9b bf 8a 3b
       -0.1674866 -0.06738126 -0.05709272 0.004234267
000370 31 65 a1 bd c0 76 ca bd 5d 98 d6 bd a8 25 1b bc
       -0.07880629 -0.09885931 -0.1047828 -0.009469427
000380 36 70 c3 bc ca 2a 31 be d7 71 3e 3d 24 42 e3 3d
       -0.023857217 -0.17301479 0.046495285 0.110966
000390 cc 63 b0 3d 62 49 60 bd a7 1d b4 bc 41 9a 5a 3d
       0.08612785 -0.054757483 -0.021986796 0.053369764
0003a0 29 86 3e 3d f2 39 c2 bd 03 b7 d9 be 15 61 a2 bc
       0.046514664 -0.094837084 -0.4252244 -0.019821683
0003b0 a4 0c a7 bd 71 05 54 bd 53 88 4c 3d 2d 44 b9 3d
       -0.08156708 -0.051763 0.049934696 0.090462066
0003c0 da db 24 bd f5 17 dc 3b 6e 44 d4 3b 19 01 e6 3d
       -0.04024873 0.006716723 0.006477884 0.11230678
0003d0 d9 f0 cd 3d d2 81 84 bd 6e d1 98 3d 65 37 5f be
       0.10055704 -0.06470074 0.074618205 -0.21798475
0003e0 40 1e 28 3e 9b 2e 4c bd da 41 bf bc 60 f9 d2 bd
       0.1641779 -0.049849134 -0.02334683 -0.10301471
0003f0 aa 9d 7c 3c ea f2 e6 3c 6b 6e 39 3d 11 c0 4e 3d
       0.015418449 0.028192002 0.04527132 0.050476138

fc3.bias f4 [36]
000000 f5 04 71 bd 26 d4 f7 ba ad ce 29 bd ee e4 a2 bd
       -0.058842618 -0.001890783 -0.041456867 -0.07953821
000010 c2 24 72 bd a4 93 40 3d ba 9b a3 bd 32 4f d8 bd
       -0.059117086 0.0470158 -0.07988687 -0.1056198
000020 7d 94 7f 3d 90 88 8a bc 1b 36 a1 bd 3d 47 d4 3d
       0.06239747 -0.016910821 -0.07871648 0.1036515
000030 17 cc 80 3d 66 60 bb bd 1e 5b 2e 3d ec 85 ab bd
       0.06288927 -0.09149246 0.042567365 -0.08375153
000040 e6 25 07 be bb f1 82 bd 60 f2 9a bd 72 84 1c be
       -0.13198051 -0.06393763 -0.075657606 -0.15284899
000050 18 f4 d8 3d 84 1e 61 3d ac 6c 19 3c 58 f1 11 bd
       0.10593432 0.054960743 0.009364288 -0.035630554
000060 9f d1 ff 3c ee 2a 42 bd 88 d1 01 3d b1 3a 5e bc
       0.031227885 -0.047404222 0.031693965 -0.013563798
000070 cf 59 9d 3d 5b 92 a2 3c 10 51 02 3d f0 cd 8e 3b
       0.07683145 0.019845178 0.03181559 0.0043580458
000080 07 8c 91 bc 0f 25 a1 bd 3e 5a aa bc 3d 65 01 3d
       -0.017766966 -0.078683965 -0.020794984 0.03159069
